model/LinearSVM_model/linearsvm_model.pt (torch, 122376 bytes, 2 tensors)

weight f4 [6, 5000]
0.015484403 -0.13676958 -0.027353007 -0.17731565 -0.21677832 -1.8038305 -0.122579716 0.061558113
-0.016399764 0.039388433 -0.045431618 -0.11566958 0.009003961 0.04656877 -0.027507085 -0.060090486
0.06667367 -0.039839327 -0.011982927 0.0027516722 -0.011394662 -0.1763575 -0.09469183 0.09745611
-0.11235801 0.03148091 0.046511233 -0.010548262 0.10458991 -0.12251796 -0.14001831 0.028808478
0.06533894 0.032063268 0.047143366 -0.09813311 0.0793509 -0.04784352 -0.066713676 0.07900692
0.013480738 0.026549049 0.050519288 0.09691326 0.0987757 0.012008908 0.040220335 0.10534573
-0.044367503 0.006597512 0.010239702 -0.009555626 0.016917739 0.02846949 0.049208026 0.113968424
0.09728635 0.012055287 0.06025634 -0.0016563466 0.020617677 0.015765317 0.020782458 0.010427568
-0.22733675 -0.13620283 0.07181268 -0.07301362 -0.11329539 -1.8965786 -0.07048221 0.0935744
-0.016748402 0.006017512 0.14874072 0.0806453 -0.32499188 -0.53063 -0.03923933 -0.22012694
-0.50000566 -0.00983465 -0.026302319 0.099542096 0.062194977 -0.116296954 -0.048831455 -0.022892186
0.027664302 -0.11182347 0.07692143 -0.0039151697 0.054689124 -0.035208624 0.040537413 -1.4529642
-0.04474645 0.016102782 0.06122489 -0.07544223 -0.12873541 -0.05523473 -0.10086958 -0.053215627
-0.0039305594 -0.010961865 0.01034807 -0.0041158283 -0.054843456 -0.8419286 0.15972857 0.041841656
0.020144254 0.1169743 0.04555484 -0.21037233 -0.0461764 0.0062664575 -0.15192088 -0.11138412
-0.08071585 -0.12926179 0.024593936 -0.0010426709 0.09126904 -0.009091508 -0.10934998 -0.0034673403
-0.0016537214 -0.11836601 0.027959436 0.0017952505 0.16815697 0.0059891012 -0.14287315 -0.12639123
0.019154923 -0.020539178 -0.028581774 0.11669055 0.02148115 0.001756252 0.05009712 -0.22563061
0.0322569 -0.0713101 -0.040147066 0.12449966 -0.04078687 0.01037113 0.052080154 -0.07613314
-0.0084807845 0.13318355 0.10899297 0.027755147 0.019366868 0.035222992 0.058513615 -0.0143143935
0.009035851 -0.0018308171 -0.05292611 -0.17331024 0.030247431 -0.039849494 0.07905447 0.060744762
-0.03783377 -0.021632016 0.010597147 0.05614832 0.07752631 0.06562924 -0.036623344 0.08555869
0.00081645267 0.046332642 0.027277997 0.09727806 -0.06854848 0.027801571 -0.06504589 -0.021544399
-0.038427718 -0.059562795 0.07155892 0.009915017 0.034029365 -0.08382204 -0.027587822 -0.022612661
-0.035761848 -0.109263554 -0.015975367 -0.030936291 -0.28412163 -0.09322538 0.023045655 0.12508468
0.035986647 0.09526469 -0.04727861 -0.024192218 0.020313246 -0.06919672 -0.071204014 -0.07949653
0.0031330988 -0.058756713 0.14307348 0.06707573 0.006524154 -0.14697437 -0.6843691 -1.1308836
-0.05941886 0.027409308 0.02781548 -0.028215583 0.027329855 0.042810906 0.0065882923 0.06849988
-0.001955924 0.033405747 -0.10136634 9.1847105e-05 -0.025554309 0.018700302 0.03769439 -0.027962266
-0.068661995 -0.038994957 -0.02997 -0.07714851 0.08183066 0.106327996 -0.053660274 0.045638386
0.0768456 0.057442743 0.052690946 -0.20652986 -0.0148308845 -0.049078036 -0.0264982 -0.05349066
0.10611784 0.072952 0.03339242 0.053130418 0.001516312 -0.030477218 0.030356467 0.14022866
00000000: 4bb2 7d3c 530d 0cbe 6a13 e0bc 3c92 35be
00000010: 23fb 5dbe ebe3 e6bf 130b fbbd 5c24 7c3d
00000020: cc58 86bc c455 213d 8116 3abd 2ce4 ecbd
00000030: 5a85 133c e5be 3e3d 8a56 e1bc 7121 76bd
00000040: 358c 883d 902e 23bd 0a54 44bc 6655 343b
00000050: adb0 3abc 0f97 34be caed c1bd 1297 c73d
00000060: f51b e6bd 20f2 003d 9082 3e3d 9ed2 2cbc
00000070: 3c33 d63d b2ea fabd f660 0fbe c2ff eb3c
00000080: 6cd0 853d c654 033d 6719 413d 03fa c8bd
00000090: ba82 a23d 91f7 43bd 2ea1 88bd 61ce a13d
000000a0: 50de 5c3c 647d d93c 50ed 4e3d 767a c63d
000000b0: ea4a ca3d 03c1 443c 14be 243d 81bf d73d
000000c0: b3ba 35bd f12f d83b 6cc4 273c 338f 1cbc
000000d0: 1297 8a3c d938 e93c 5b8e 493d 4768 e93d
000000e0: 113e c73d 8a83 453c 5acf 763d c519 d9ba
000000f0: 67e6 a83c 4426 813c f93f aa3c 64d8 2a3c
00000100: f7ca 68be c178 0bbe 8712 933d 2a88 95bd
00000110: 6a07 e8bd 16c3 f2bf fa58 90bd efa3 bf3d
00000120: f233 89bc 8d2e c53b 7d4f 183e 5d29 a53d
00000130: 5665 a6be 5ed7 07bf 6bb9 20bd f568 61be
00000140: 5f00 00bf 8321 21bc f677 d7bc badc cb3d
00000150: 29c0 7e3d 192d eebd 7e03 48bd 6588 bbbc
00000160: 3fa0 e23c b403 e5bd fc88 9d3d d34a 80bb
00000170: b401 603d eb36 10bd 8f0a 263d bbfa b9bf
00000180: 0e48 37bd fbe9 833c f3c6 7a3d 7581 9abd
00000190: 37d3 03be d03d 62bd b694 cebd a1f8 59bd
000001a0: eccb 80bb 6599 33bc f48a 293c 12de 86bb
000001b0: 88a3 60bd a288 57bf e38f 233e 2862 2b3d
000001c0: 9005 a53c 3990 ef3d b697 3a3d d86b 57be
000001d0: 7723 3dbd db56 cd3b 2691 1bbe 5c1d e4bd
000001e0: 5a4e a5bd 345d 04be 3979 c93c 3baa 88ba
000001f0: 43eb ba3d 8cf4 14bc e2f2 dfbd 513c 63bb
00000200: afc1 d8ba e169 f2bd 300b e53c 9c4e eb3a
00000210: 5731 2c3e 3940 c43b 574d 12be b46c 01be
00000220: c9ea 9c3c c741 a8bc 5324 eabc 75fb ee3d
00000230: 3df9 af3c 0a32 e63a a332 4d3d b60b 67be
00000240: d01f 043d 080b 92bd 4071 24bd aef9 fe3d
00000250: 2210 27bd aceb 293c 0052 553d b1eb 9bbd
00000260: fdf2 0abc 4561 083e b537 df3d c35e e33c
00000270: 44a7 9e3c fc45 103d f9ab 6f3d eb86 6abc
00000280: 1b0b 143c 07f8 efba 0cc9 58bd 3d78 31be
00000290: 76c9 f73c 3939 23bd 4fe7 a13d 80cf 783d
000002a0: 95f7 1abd a035 b1bc a89f 2d3c c8fb 653d
000002b0: 1dc6 9e3d 9f68 863d 5c02 16bd 6539 af3d
000002c0: 3607 563a 4cc7 3d3d 1b76 df3c b839 c73d
000002d0: 2563 8cbd 1fc0 e33c c836 85bd e17d b0bc
000002e0: 6266 1dbd 1ef8 73bd 7c8d 923d 9872 223c
000002f0: 6062 0b3d e4aa abbd dbff e1bc 303e b9bc
00000300: 047b 12bd 92c5 dfbd c6de 82bc 1b6e fdbc
00000310: 6478 91be f3ec bebd 3eca bc3c 3316 003e
00000320: bc66 133d 221a c33d 37a7 41bd c22e c6bc
00000330: f767 a63c 03b7 8dbd 69d3 91bd 14cf a2bd
00000340: ad54 4d3b e1aa 70bd db81 123e 005f 893d
00000350: 92c8 d53b 7380 16be d032 2fbf cbc0 90bf
00000360: 3161 73bd 7c89 e03c 4add e33c 5e24 e7bc
00000370: dce2 df3c 7d5a 2f3d 9ae2 d73b aa49 8c3d
00000380: f62e 00bb 77d4 083d 2899 cfbd 0a9e c038
00000390: 4557 d1bc 6031 993c 6f65 1a3d 1f11 e5bc
000003a0: a99e 8cbd 2db9 1fbd a583 f5bc 0a00 9ebd
000003b0: d596 a73d 7ec2 d93d e0ca 5bbd 51ef 3a3d
000003c0: 3a61 9d3d 1549 6b3d 76d2 573d 907c 53be
000003d0: 3dfd 72bc 0d06 49bd c112 d9bc 0619 5bbd
000003e0: 4f54 d93d dc67 953d 7dc6 083d 489f 593d
000003f0: fdbe c63a 5cab f9bc 20ae f83c 1a98 0f3e

bias f4 [6]
1.1425216 0.052161314 -0.09754491 0.06331278 -0.65364355 -0.4975298
00000000: 263e 923f 1aa7 553d a0c5 c7bd 21aa 813d
00000010: 2f55 27bf 3abc febe
